checkpoint.pth (torch_old, 21059 bytes, 10 tensors)

fc1.weight f4 [64, 37]
00000000: 7c7f 58bd 782c 3c3e 62cb ddbd b6c6 0b3e
00000010: 6661 c7bc b6d2 d4bb c9ef 643e 6458 103e
00000020: 6c8a 9c3c dbda 2e3e 08c8 01be df95 9f3d
00000030: af43 12be c876 073e bb05 8d3d 7eba e33d
00000040: 783d 0bbd 746f 053e da46 f93d 7d2e 29be
00000050: 3f22 503d 84a2 943e bc3f ccbd 80dc 863e
00000060: 3bc0 acbd be79 dbbc cf4c 993e 0752 cebd
00000070: 9463 0dbd 16ff 38bd eca2 15be 5263 c23e
00000080: 0a66 39bd e4de b7bc 8b26 193e c96a 87bd
00000090: 53ad e8bd 8640 733e ef8a a93d 82a4 973c
000000a0: 68bd 34bd ec6c 12bd 6cb1 50bd 395d 10be
000000b0: 6b92 a9bc 4825 42bd 80ce b53c 753e 8a3d
000000c0: c64b 69bd 3b89 703d a701 493d 77ca 7b3d
000000d0: d88f 153c 9b2a 363e 4f6f b23d 5bb1 1abe
000000e0: 6440 b4bd a6d9 f9bd a60e c5bd 2939 df3d
000000f0: c3d7 34be c4af 55bc c859 b73c 3c31 b2bd
00000100: c55b 313e d203 85bd 8ad6 02be 13be 873d
00000110: 64f4 d0bd 22b3 403e 5fe8 903d 6f46 dabd
00000120: cc16 e33d 29ec b23e e30e 903e 115a 12be
00000130: ef4c e23d b13a b8be 4bb0 8bbf b8c6 223d
00000140: 9d58 4c3d d861 313d c82e c2bb 58b5 3dbd
00000150: 19f4 debc 7058 d53b 1bbe 54bc 282c 5ebd
00000160: a32d b2bc 5819 9fbd 7e5b 913d 589e 963c
00000170: c808 153e 51cc 5c3d 5eec d4bc e5d9 10bb
00000180: 086e f1b9 f16d fe3c b84e d13d 59ef 5fbd
00000190: 4ed3 6b3b 481a eb3d d759 e53d 2cd4 4f3e
000001a0: 5651 f0bd b5d0 96bd d625 cdbd 4c83 a9bd
000001b0: 032b 7fbc b466 3bbb a7ae 07bb a2d1 d63d
000001c0: 7f97 34be 5f9d ddbd d6d0 f8bc 86ac 27bf
000001d0: b327 9ebd 58d3 603b 07db f6bd 05fb f2bd
000001e0: 4f6a 563d eee5 8abd 1d5a 03be b7b3 eabc
000001f0: a74e 86be 763f a43d 091d d9bd 41d8 4fbe
00000200: 8c7f a0bd d694 66be 53d9 12be 5577 97bc
00000210: 906c 02be 500c 26be e416 b5bc 6245 90bd
00000220: cde7 88bd 0ad5 e8bd b238 013d 1ad4 25bd
00000230: 4b8e 2f3e 0324 a13c e6f4 2fbd 4267 983c
00000240: 5ba3 1abe 3c74 b3bd 9400 b23c a468 733b
00000250: 87bb 06be b42f 56be d9d7 d5bd 6457 9cbd
00000260: 1164 93be b17a af3d ebb3 ac3c 7bf9 91be
00000270: 513e 0c3e 46cd ac3d 8730 2bbe b74a eb3d
00000280: c211 873c 5f9f 03be 1afd abbe 6a08 2dbe
00000290: 7fd1 8b3e bd18 d7be 2913 03be da2e 3cbe
000002a0: 38f7 8e3d 0b55 bcbe 0037 f33d b53a bc3c
000002b0: 8963 b5bd e51a bd3d bb2d 01be 874f 343e
000002c0: a583 f4be ca31 fbbd d4fb 3a3d 8a32 07bf
000002d0: 56a6 ca3c ae2c 993d 8004 cdbd 4387 883d
000002e0: dfbb bcb9 a805 7bbc eb41 2bbe 7f44 e93d
000002f0: 32a9 ccbc 7fe2 56bd 3053 ec3c 10a7 673e
00000300: 1f4f 953d 841b 54be 6c10 a6bd bd43 80bd
00000310: c014 813d f349 b1bd f2be 09be 1f4b 93be
00000320: 9ff8 23be 1821 113e 3a76 98bc 0bb5 d23c
00000330: 6755 273e 12eb 67bc 83b6 533e 16ca 0b3e
00000340: 4f44 28bd 35b7 f43d f68a a93e ab19 39be
00000350: 11a2 68be 3080 fabd 2c39 713d c5c8 c9bd
00000360: b6f6 d33c 6433 843d fd08 debd c7d5 babd
00000370: 70c8 803d 3be1 443e 8838 b5bc 4988 c23d
00000380: 5d2d 913d adb6 003d b16f 69be 023c 39be
00000390: f2cb 013e 8e7d a33d 18f7 8c3d a02a bb3e
000003a0: fc6a 493d c40c 523e 2111 0c3e 3b9e b5bc
000003b0: 8a77 ab3e 8ea9 523d 2d6c 18be 3742 923e
000003c0: 5248 2cbe b7be 803d e9f9 12bd 0557 a33c
000003d0: 92c0 2e3e b3ee a5bd 7154 983e 6482 8ebd
000003e0: fb86 6c3d 9e92 e83d 68ff 84be 7280 b3be
000003f0: 3b8b 623d c422 6b3d d5c1 cb3d 06c3 48bd
-0.052855954 0.18376338 -0.10829808 0.13650021 -0.024338435 -0.0064948453 0.22357096 0.14096218
0.019108973 0.17075674 -0.12673962 0.077922575 -0.14283632 0.13228905 0.068858586 0.11119555
-0.033994168 0.13030797 0.12171717 -0.1652164 0.05081391 0.2903024 -0.09973094 0.26340103
-0.084351026 -0.02679145 0.29941413 -0.10074239 -0.034518793 -0.045165144 -0.14612931 0.379664
-0.045263328 -0.02244515 0.14956109 -0.066121645 -0.11361184 0.23755082 0.082784526 0.01851106
-0.044125944 -0.035748407 -0.050950453 -0.14098062 -0.0206997 -0.047398835 0.022193193 0.06750194
-0.05695703 0.058724623 0.04907384 0.061472382 0.009128533 0.1778969 0.08712637 -0.15106718
-0.08801344 -0.12199716 -0.096219346 0.10899574 -0.17660432 -0.013042394 0.022381678 -0.08700797
0.17320164 -0.06494869 -0.12777153 0.06628051 -0.10202864 0.18818334 0.07075571 -0.106579654
0.110883325 0.349458 0.28136358 -0.1429217 0.1104983 -0.35982278 -1.0913175 0.039740294
0.049889196 0.0433062 -0.005925987 -0.04631552 -0.027216004 0.0065107867 -0.012984778 -0.05424133
-0.021750277 -0.07768506 0.07097529 0.018386051 0.14554131 0.05390579 -0.025991615 -0.0022102532
-0.00046049082 0.031058284 0.102200925 -0.05467162 0.0035984102 0.11479622 0.11198776 0.20295781
-0.117342636 -0.073640265 -0.10016982 -0.08276996 -0.01557422 -0.0028595151 -0.0020703466 0.10489203
-0.17635916 -0.10821032 -0.030373018 -0.65497625 -0.07722416 0.0034305658 -0.12053495 -0.118642844
0.052347478 -0.06782137 -0.12827344 -0.028650148 -0.26231882 0.08019917 -0.10601241 -0.20297338
-0.07836828 -0.22517714 -0.14340715 -0.01848952 -0.12736726 -0.16215634 -0.022105642 -0.07044484
-0.066848375 -0.11368759 0.03154821 -0.04048548 0.17144124 0.019670492 -0.042958163 0.018603925
-0.15101378 -0.08762404 0.021728791 0.0037141228 -0.13157474 -0.20916635 -0.1044156 -0.07633856
-0.28787282 0.085683234 0.021081885 -0.2851065 0.13695647 0.0843759 -0.1671773 0.1148886
0.01648796 -0.12853764 -0.3359154 -0.16897741 0.2730827 -0.4201106 -0.12800278 -0.18377247
0.06980747 -0.36783633 0.11875725 0.022977212 -0.088568754 0.09233645 -0.12615101 0.17608462
-0.47756687 -0.12265356 0.04565032 -0.5281149 0.024737518 0.07479225 -0.10010624 0.06666424
-0.0003599813 -0.015321173 -0.16724364 0.11390018 -0.024983022 -0.052462097 0.02884826 0.22622323
0.07290482 -0.20713621 -0.08108601 -0.0626292 0.06302786 -0.08656683 -0.13451746 -0.2876825
-0.1601281 0.1417278 -0.018611062 0.025721094 0.16341172 -0.014155166 0.20675091 0.13651308
-0.04108077 0.119490065 0.3311383 -0.18076198 -0.22718073 -0.12231481 0.058892414 -0.09852747
0.025874477 0.064551145 -0.10841558 -0.09122806 0.062882304 0.19226544 -0.022121683 0.094986506
0.070887305 0.031424213 -0.22796513 -0.18089297 0.12675455 0.07982932 0.06883067 0.36555958
0.049174294 0.20512682 0.13678409 -0.022170177 0.3348964 0.05143123 -0.14885016 0.28566143
-0.16824463 0.06286376 -0.035882864 0.019938955 0.17065647 -0.08102169 0.29751924 -0.06958464
0.057745915 0.1135609 -0.2597611 -0.35058933 0.05530856 0.057406202 0.0994908 -0.049014114

fc1.bias f4 [64]
00000000: 6a3c 573e ddfb 0abd 519d 12be 8720 51be
00000010: 9c24 643e 5d20 c83d ee71 d9bd bf76 8f3d
00000020: b857 1bbd b417 11be 6e32 ac3e 0d8b 12be
00000030: d1e0 4d3e 5b38 863e 1cef 02be 2ec1 14bd
00000040: a5e1 003e 004c 4fbd d0e1 9d3c 457e 54be
00000050: 36ca 83bd 0114 933e 03f5 8abc 97bb 75bd
00000060: d7a7 7bbe a71b 653c 2bf2 94bd 07ff 73be
00000070: e16b 543e 5cfd 49bd 9323 26be ccd5 21be
00000080: 0e4b 4e3e 8fe4 87bd 0a61 1fbe c9d2 753e
00000090: ddf0 a3bd 91fb 09be 7446 c6bd 9f42 bcbd
000000a0: 4522 75be 752d 7a3d 83a0 f3bc 1ed9 273d
000000b0: 1118 863d 61e6 263c a51b 07bd f233 21be
000000c0: 66dc 5e3e 8200 fc3d 470f 00be 4ef3 1a3d
000000d0: dc5a 84bd 44bb 5fbe b8bd 30be e074 d93b
000000e0: 69d6 8d3e 8f99 e03c 365c 33be 19f6 0a3e
000000f0: 4d60 a4bd ba6f 813b 6ef0 773c 7d55 40bc
0.2101914 -0.0339316 -0.14317824 -0.20422564 0.2227959 0.09771798 -0.106174335 0.07005071
-0.037925452 -0.14169198 0.33632225 -0.14310856 0.20105292 0.2621487 -0.12786525 -0.036317043
0.12586077 -0.05060959 0.019272715 -0.20751293 -0.06435053 0.287262 -0.016962534 -0.059993353
-0.24575745 0.013983644 -0.072727524 -0.23827754 0.20744278 -0.049313888 -0.16224508 -0.15804213
0.20145819 -0.06635391 -0.15564361 0.2400619 -0.080049254 -0.13474871 -0.096814066 -0.091923945
-0.23938854 0.061078507 -0.029739624 0.040978543 0.06547559 0.010186763 -0.03298535 -0.15742472
0.21763763 0.12304784 -0.12505828 0.03782969 -0.064626426 -0.2184878 -0.17259872 0.006636247
0.27702644 0.027416972 -0.17515644 0.13570441 -0.080261804 0.0039500864 0.0151330065 -0.011739132

fc2.weight f4 [32, 64]
00000000: e804 12be 8422 633e 3ef2 d63c a80b bf3d
00000010: 247a 323e f3f0 6e3e 50c2 edbe 1c16 3e3c
00000020: 2367 673e 0c1e 8a3d 92fe 08be 1757 39be
00000030: eb17 51be c9f6 023e a2e4 cabe ec91 99be
00000040: 1a69 203d 2036 02bf 7986 893c dc6f 93bd
00000050: adf6 52be 75d0 99be fcd8 f8bd 44d8 c4bd
00000060: 6dfa 80bd f25a 2a3e 8434 8fbe 8408 f3bc
00000070: 6333 573e 00fb 54bd c261 f73d 221c fcbe
00000080: e9f3 8dbe bfa7 1f3e 1fa7 a63e cbdd 5a3d
00000090: f75b 5cbe 0360 9f3e 6476 273e c109 76bd
000000a0: 9415 99be 4e48 bb3d 7499 3bbe 839b 82be
000000b0: d4f7 a43e 7074 283e 8711 84be 54f2 9f3d
000000c0: 24de 37be 3fed 77bc 49b9 443d 7cee 563e
000000d0: 8176 f83b 0945 d0bd af6c 53be d811 763d
000000e0: d4fb aabd 975c 01be 51db 21be 0d32 cc3e
000000f0: 37d7 2bbd f7f4 dfbd 914b 74bd 82db 60bc
00000100: 9910 f5bd f036 593e 5e50 e63d d4ad 9c3d
00000110: 9b71 173a db13 073c c88a 56bd a45d 22bd
00000120: 1b44 193e 91bf afbd 92a0 d83d b552 ec3d
00000130: 0bce 32bd a664 d0bc c328 1ebe 21e2 c2bd
00000140: 8a31 713e a302 8abe becf dfbd 6012 723c
00000150: bffc 773d c0e3 7ebe 2c81 1ebd c5b0 e03e
00000160: 2f38 ad3c 23e1 f5bc 20ea 80bd b02b 05be
00000170: 8064 113c 5d2f 4b3d 81c8 0f3e 54d8 a73c
00000180: ac38 8ebc bb8b 733e 887e babd c081 a2be
00000190: 92f8 51be f968 8bbc 10fc 723e 43e3 7a3d
000001a0: 5ec9 02bc 8a1d 333a 9654 593d c8fe 24bc
000001b0: a504 57bd a6f1 10be 02b2 43bb 1b34 55bc
000001c0: 094e 91bd 8cef bdbb ea9b 41be 87a2 383d
000001d0: e745 003d 4867 76bd ce3c 93bd add9 61bd
000001e0: ffdd 08be d99d fbbb 79bf 2a3e 4370 44bd
000001f0: e58c b2bc a631 e73c 5133 8b3c 786f c0bc
00000200: ec0d 00be 6bc2 33be 46a8 5fbc f18f ac3d
00000210: 6734 5d3d a648 9e3d 70ce cabd d2eb d6bc
00000220: 5ac6 47be 3e67 64bd 517c 0d3d fe88 333d
00000230: ef1c a3bd 8941 273e 14be f4bd afc1 16be
00000240: b5f3 053e 1e0d a03d e091 d13d b645 21bd
00000250: 59f5 cebd a43e 223d b510 c03d 1acb 92bd
00000260: 3f90 65be 79af a53d e210 993e ba78 343b
00000270: 4b2f 87bb a919 d9bb 4b33 233d c2ec 583d
00000280: 810a 30bd 5ee7 b03d 1e34 26be fd1a 053e
00000290: c37f d63b f3e1 7abd eb1a fe3b 429a cbbc
000002a0: 0904 1cbd 2e5b a0bc 1579 efbd b842 68be
000002b0: 7a67 e1bb e90b b53c 8c21 f03c 01b3 73bd
000002c0: 4355 fdbd b4f9 bfbd 49f8 a1be 2bf7 04be
000002d0: 2167 ac3d f3fe 95bd 820f 97be 023e 85be
000002e0: 9ab3 25bd dd87 f9bd a451 453b a129 8f3c
000002f0: c147 23be c934 0dbe 9742 f7bd 64b4 5dbe
00000300: 24e0 57bd db6b fa3c ba43 7d3c a567 b73c
00000310: c93b fb3d 4cc1 c3bb 1942 5d3d d514 a3bd
00000320: ecf2 27be cb5e 8abe aaef 88bc 3612 99bc
00000330: ea1c 07be b8e4 f0bc 2879 45bd 929a b83d
00000340: 7aca 983c 0f89 f73c 4a8a 4d3d 9c62 ecbc
00000350: a33f 573e 98f9 713d ccad c9bd dea0 4d3e
00000360: b930 793e 39c1 babc d7ee 9e3e 1e6c e83b
00000370: a164 0cbd 5840 d2bd d7bf f4bc e7c7 723d
00000380: 5231 e33d 14ac 1c3d bf62 08be 9abc bf3d
00000390: 2c20 62be aa49 143e ae18 5b3c 069b b2bd
000003a0: 8fb0 61be 471a 773c bcce bd3d 41ee 3b3d
000003b0: 5168 f43c d504 713d 5fbe 123e 55bd 7dbd
000003c0: b210 09bb 98f2 78bd b0d5 07bd 14ce 36be
000003d0: 55d1 e1bc 81fb 4abd 165d 03be 0f47 94bb
000003e0: ea91 bdbd c3c6 4c3d ed54 c9bc 8a7b 923c
000003f0: bdf9 6dbe cb4a 34bc 0bd0 4ebe 3bf0 04bf
-0.14259684 0.22181135 0.026238557 0.09328395 0.17429405 0.23334102 -0.4643731 0.011601951
0.22597937 0.06744012 -0.13378361 -0.18099628 -0.2041928 0.12789454 -0.39627558 -0.29994142
0.039162733 -0.5086384 0.016787754 -0.0719907 -0.20601912 -0.30041853 -0.121507615 -0.09611562
-0.06297765 0.16636255 -0.27969754 -0.029667147 0.21015696 -0.051997185 0.12079193 -0.49240214
-0.2772515 0.15591334 0.32549378 0.053434175 -0.21519457 0.3112794 0.16353756 -0.060067896
-0.29899275 0.091446504 -0.18320256 -0.2550927 0.32220328 0.16450667 -0.25794622 0.07809892
-0.17955834 -0.0151322475 0.048028264 0.20989412 0.007582486 -0.101694174 -0.20646928 0.06007561
-0.08348814 -0.12632976 -0.15806319 0.39881936 -0.04195329 -0.10935395 -0.05964238 -0.01372421
-0.119660564 0.21212363 0.112457976 0.076503426 0.00057771214 0.00824448 -0.052378446 -0.039640084
0.14967386 -0.0858146 0.10577501 0.115392126 -0.04365353 -0.025438618 -0.15445237 -0.09515787
0.23554054 -0.26955137 -0.109282956 0.014774889 0.06054377 -0.24891567 -0.038697407 0.43884864
0.021144954 -0.03001458 -0.06294656 -0.13004947 0.008874059 0.049605716 0.1404133 0.020488895
-0.017361008 0.23783772 -0.09106165 -0.31739616 -0.20504978 -0.017017828 0.23728967 0.06125189
-0.00798258 0.000683271 0.053059183 -0.01007051 -0.052494664 -0.14154682 -0.002986074 -0.013012911
-0.07094962 -0.0057963785 -0.18907133 0.045076873 0.031316664 -0.06015709 -0.07189332 -0.055139232
-0.13365935 -0.007678729 0.16674604 -0.047958624 -0.0217957 0.028221916 0.016992243 -0.023490652
-0.12505311 -0.17554633 -0.013650959 0.08425892 0.054005053 0.077287 -0.09902656 -0.026235495
-0.19509259 -0.055762522 0.034542385 0.043831818 -0.07964503 0.16333593 -0.11950317 -0.14722322
0.13081248 0.07815002 0.102329016 -0.039373122 -0.1010539 0.03961052 0.093781866 -0.07167645
-0.22418307 0.080901094 0.29895693 0.002753778 -0.004125511 -0.0066253734 0.03984384 0.052960165
-0.042978767 0.0863788 -0.16230819 0.12998576 0.006545992 -0.06125064 0.0077546737 -0.02485383
-0.038089786 -0.019574728 -0.116930164 -0.22681701 -0.0068787904 0.022100406 0.029312871 -0.059496883
-0.12369778 -0.09373799 -0.3163474 -0.12984912 0.08418108 -0.07324018 -0.2950402 -0.2602387
-0.040454485 -0.12184117 0.0030108476 0.017475905 -0.1594534 -0.13789667 -0.12073248 -0.21650845
-0.05270399 0.030569008 0.015458042 0.022388289 0.122672625 -0.0059739705 0.054018114 -0.07962958
-0.16401261 -0.27025446 -0.016715843 -0.018685441 -0.13194624 -0.029405937 -0.048211247 0.09013857
0.018651236 0.030216722 0.05018071 -0.028855614 0.21020369 0.05907592 -0.09847602 0.20080897
0.24334992 -0.022797214 0.31041595 0.0070929667 -0.034275655 -0.10266179 -0.029876633 0.059272673
0.110933915 0.038250044 -0.13318919 0.09362145 -0.22082585 0.14481226 0.013372583 -0.087209746
-0.22040008 0.015081949 0.09267947 0.045881514 0.029834898 0.0588425 0.14330433 -0.06194814
-0.0020914492 -0.06077823 -0.033162773 -0.1785205 -0.027565638 -0.04955626 -0.12828478 -0.0045250724
-0.092563465 0.04999424 -0.024576629 0.017881174 -0.23239799 -0.01100416 -0.2019655 -0.5192906

fc2.bias f4 [32]
00000000: c444 b5bd 665b a7bd 926c b7bd cef5 d73d
00000010: ef98 8c3e bb1f 183e d5ca 03be 861e ed3b
00000020: 1d98 35be c6b7 80be 889e 4e3f b654 08bc
00000030: 0aaf b23d f0e2 4d3e 9acc 36bd 6128 8a3e
00000040: 192f 8dbe 836a 643e 85b5 ce3d a49d a9bc
00000050: 67af 6a3c 6e57 753e af2e a13e e199 5a3e
00000060: 094e 113f f1d6 5cbe 6b46 133c 34e1 9ebd
00000070: 55c8 1d3f 2954 2b3e 72b1 f13e 9180 223f
-0.088510066 -0.0817173 -0.08956255 0.105449304 0.2746043 0.14855854 -0.12870343 0.0072363047
-0.17733808 -0.25140208 0.8071065 -0.008320978 0.08724792 0.20106101 -0.044628717 0.26983932
-0.27574995 0.22306256 0.10093216 -0.020705052 0.014324046 0.23959133 0.3148093 0.21347763
0.567597 -0.21566369 0.008988957 -0.07757798 0.6163381 0.16731323 0.47205693 0.63477427

fc3.weight f4 [4, 32]
00000000: 3e0f d7bc 48f4 c53d b0fd 853e 284a 593e
00000010: 5210 be3d 3085 823e 06c4 a6bc d231 523e
00000020: 09cf fdbd 031e d93d d2ac b93e b722 453e
00000030: d083 7a3e 6288 133e e988 c23d 954c f03d
00000040: 34ed 86be 4d49 1a3e d2b5 36bd 7955 03be
00000050: c629 98be 0dd1 333e b3ef bf3d fe70 be3d
00000060: e82f 483e 2f4a 42be 8aac 4dbe f2d4 83be
00000070: 8c4c 633e 0fcc e83d 8473 283e 16a6 8d3e
00000080: c24a af3b f2ee 143e 58c8 383e 8b63 313e
00000090: 554a 513e db17 3c3e 5f7c 1dbd 05e5 6c3e
000000a0: ad92 53be 88ee d7bd a5da 993e 3069 1f3e
000000b0: 4578 9d3e ed5a 1c3e a7a8 553e 9591 d13c
000000c0: 242f 86be da46 4a3e d323 2c3e ed2b babc
000000d0: 5f43 83be f8f7 bb3d 29db 503e 0062 e33d
000000e0: 46df 443e 49c7 0fbe d9e4 c0bd f74b 0fbe
000000f0: a52d 903e 1ad9 4b3e 568a 6d3e 0e0b 6c3e
00000100: 1563 64bf 99a3 6dbd f09e 833e 4cd9 353e
00000110: 5ee7 5f3e a24e 0d3d 7a48 5dbe 7937 593d
00000120: 140c 30bc e1cc 22be 0e41 813e 58a7 8d3e
00000130: ba97 34bd e2fe f93c 198a a23e 73f9 173d
00000140: 11a6 cebe ea25 bf3d 095f 0a3e b27d 6e3e
00000150: ffac 93be 5a56 9b3d 11c3 323e 8bdd 2b3d
00000160: a4ff 903e 4220 87be a3e8 60bd d7f2 07be
00000170: 0100 883e a246 3d3e 8a7c d43d b696 ad3e
00000180: a419 773d 05ea 933e e95a 2a3e c1f6 873e
00000190: fa50 0e3e 13db 333d ba9c 38be 3b2b 3d3e
000001a0: b2ab cdbe 2ee9 7abe 6273 ba3e 385f 603e
000001b0: 59cb 423e f487 5e3d 6c71 213d 28fc 493e
000001c0: b39a 033d aea4 833e 347e 903d 24cc 2b3d
000001d0: 4a98 e5bd cc4b 813e 5ce4 f83d 7303 813e
000001e0: 83d0 663e be01 1fbe 0a3e 73be f2d4 1ebe
000001f0: a5d0 4f3e e994 073e f064 1b3e d638 293e
-0.026252385 0.096657336 0.2617011 0.21219695 0.092804566 0.2549224 -0.020357143 0.20526817
-0.123930044 0.106014274 0.36264664 0.19251524 0.24464345 0.14407495 0.0949877 0.11733357
-0.26352847 0.15067025 -0.04460699 -0.12825574 -0.2971937 0.17560215 0.09371891 0.09298895
0.19549525 -0.18973611 -0.2008535 -0.25748402 0.22197169 0.11367046 0.16450316 0.27665776
0.005349488 0.14544275 0.18045175 0.17323129 0.20438512 0.18368475 -0.038448688 0.23134239
-0.20661421 -0.10543543 0.30049625 0.1556747 0.3075582 0.1526906 0.20865117 0.025582114
-0.2620784 0.1975359 0.16810541 -0.022726024 -0.25637338 0.09178156 0.20396103 0.111026764
0.19225797 -0.14040865 -0.09418649 -0.13993822 0.28159824 0.19907036 0.23197302 0.23051092
-0.8921369 -0.058017347 0.25707197 0.17758673 0.21865603 0.03449882 -0.21609679 0.05303142
-0.010745067 -0.15898468 0.25244945 0.27666736 -0.04409001 0.030517045 0.31745985 0.037103128
-0.40361074 0.093334034 0.13512816 0.23290136 -0.28842923 0.0758483 0.17457224 0.041959327
0.28320038 -0.26391798 -0.05490936 -0.1327623 0.26562503 0.18483976 0.103753164 0.33904046
0.060327187 0.2888948 0.16636242 0.26555446 0.13898078 0.043910097 -0.18028536 0.18473522
-0.40170056 -0.24503013 0.36416155 0.21911323 0.19022883 0.054328874 0.03941481 0.19725096
0.032129955 0.25711578 0.07055321 0.04194273 -0.112106875 0.2525314 0.12152931 0.25197944
0.22540478 -0.15528008 -0.23754135 -0.1551092 0.20294435 0.13240398 0.15175223 0.16525587

fc3.bias f4 [4]
00000000: 18d3 ef3e a112 c63e 6ef5 cd3e 32fd f93e
0.4684074 0.38686088 0.4022631 0.48825985

bn1.weight f4 [64]
00000000: da00 633e 98b9 7e3e 4fbb 8e3e c3ce b43e
00000010: ce06 cb3e 5144 293f c78e 9d3e 245e 993e
00000020: 157c b03d 95df 933e b25c 8f3e a44a b23d
00000030: 2da6 3d3e 1a85 433e e0e2 813e b954 d23e
00000040: f689 d83d 9ce9 ed3e 3faf b93c ddfe 923d
00000050: 482a 543e 3e16 f33e 5089 ac3e e2a5 233f
00000060: 05e7 723f 5c08 833e e113 263f a4b8 a73e
00000070: 4e60 c13e 3339 983d c4aa 643e c550 f13e
00000080: 4585 fa3e d5e7 af3e 15ee a43e 5f4c f63e
00000090: 7e96 0d3f 9ff4 e63e 1645 b23e 7714 bc3e
000000a0: 4da7 453e 69be b13e cea6 a13e a5fe 633f
000000b0: 7f1e 953e cd40 753e 919a 943e edee 043f
000000c0: 66ae 0e3e ee20 943e 545b a63e fcd5 353e
000000d0: 6e70 1d3f 605c 2ebc b649 c63e fd72 a53d
000000e0: 0ad9 193f d8fe 093d 0be9 263f 41f2 993e
000000f0: e9a2 033f 62c7 4f3f 8dc5 f13e 4334 ea3e
0.22168294 0.24875486 0.2787728 0.35313997 0.3965363 0.6611987 0.30772993 0.29954636
0.08617417 0.28881517 0.28000408 0.08705643 0.18520422 0.19093743 0.25368404 0.41080263
0.10573189 0.46467292 0.022666572 0.071775176 0.20719254 0.47477907 0.3369851 0.6392499
0.9488376 0.25592315 0.6487408 0.32758057 0.37768787 0.07432785 0.22330767 0.47131935
0.48929802 0.3435656 0.32212892 0.48105142 0.5530776 0.45108506 0.34818333 0.36734363
0.19302101 0.34715584 0.31572574 0.8906043 0.2912483 0.23950501 0.29024175 0.5192707
0.13933715 0.28931373 0.32491553 0.1775741 0.6149968 -0.010642141 0.38728112 0.08078573
0.600968 0.033690304 0.65199345 0.30067638 0.51420456 0.8116361 0.47221032 0.45742998

bn1.bias f4 [64]
00000000: 8751 063f 6233 093f 7182 cbbd b173 3d3b
00000010: 8808 c0bd 8c83 c0be 1c23 9c3e b8a1 d4be
00000020: 8701 bf3e bccb a0bd 4ccd 9cbe 44e2 483e
00000030: b5fb 49be 41a4 bc3e 3856 aebc b9ed b13d
00000040: 6c2e 83be ad7c 693d 61de e7be e3f8 0d3f
00000050: f459 323e 5b6e 87be 37c1 91bd 3f7f 7b3d
00000060: 3a84 123d ada0 3bbb fb9b 973d fb1e 99be
00000070: 60df a2be 0a9f 92be b18c cebe c869 333d
00000080: 32a1 a03e ecde 63be 9441 04be cc42 b83d
00000090: 579c ddbc e882 bc3d 86f1 07be 278b bd3d
000000a0: a699 0c3e 904e 78bb 8a32 05be f296 b2bd
000000b0: ce3e 8bbd 6102 61be 586c e03e 0864 ccbe
000000c0: e7f9 fb3e 080d 6fbd abe1 80bd 752f 84be
000000d0: 499d 9c3e e039 83be 6d63 243d 5f20 a8be
000000e0: 41c7 773e 04c9 003f 93b2 a3be 62ca debe
000000f0: 7dfa 763e 51e0 12bf d82d 7f3e 16d3 063f
0.5246815 0.5359403 -0.09936989 0.0028908069 -0.09376627 -0.37600362 0.30495536 -0.41529632
0.37305853 -0.07851359 -0.3062538 0.19617563 -0.19724925 0.36844066 -0.021281347 0.0868792
-0.25621355 0.057003666 -0.4528685 0.55457896 0.17417127 -0.26451382 -0.07116931 0.06140065
0.035770632 -0.0028629706 0.07402798 -0.2990645 -0.31811047 -0.28636962 -0.40341714 0.043802053
0.31372982 -0.22253007 -0.12915641 0.089971155 -0.027052088 0.09204656 -0.13275728 0.09255057
0.13730487 -0.0037888624 -0.1300756 -0.08720197 -0.067990884 -0.21973564 0.4383266 -0.39920068
0.49214098 -0.058362037 -0.06293043 -0.25817457 0.3058875 -0.25630093 0.040133882 -0.32837197
0.24197103 0.50306726 -0.3197218 -0.4351378 0.24118991 -0.5737353 0.24919832 0.5266584

bn1.running_mean f4 [64]
00000000: 5d54 ba3e 9ef9 cb3f 1ebf 953b 0400 0000
00000010: 2e89 e63c 2b07 783f 790a ac3e feb4 a83e
00000020: 13a7 a93d 19d3 0d3e a0be ae3f 29f6 e13b
00000030: 5f86 0e3e 48fb 313f 9110 bb3d b8ad a73d
00000040: 875e 5e3e 131b f93c dba4 bc3d 4c7e 8b3e
00000050: 3dd2 243f 2693 4a3f d997 103e fc7f 3b3d
00000060: 5ea9 bb3d 384c 8a3d 2e5d 533d 0400 0000
00000070: 81aa 453f e482 0e32 0400 0000 2c5b a73d
00000080: 7b85 333f 045f 733e d5c0 af3d 0137 0f3f
00000090: fb62 ad3e 71be c93c e1e9 e039 94ec e23d
000000a0: 7aaa 373d f67e 843d f60b 243e c12e 473d
000000b0: a7f9 c83c 6e27 053e e21c 7d3f 57e9 703f
000000c0: 2df1 a73f edfc 503e 55bb 673e e875 3f3a
000000d0: ed7c 173c 6249 753b f21d f63d aa09 5b3f
000000e0: 5474 183f 9456 cb3e 0f86 3836 35c6 313e
000000f0: 6313 ec3c 8db7 233c 4f1a ae3e ec18 443d
0.3639249 1.5935552 0.004569902 6e-45 0.028141584 0.9688594 0.3360174 0.32950586
0.0828382 0.13850059 1.3651924 0.0068957997 0.13918446 0.6952405 0.09134019 0.08187431
0.21715747 0.030408418 0.09211131 0.27244794 0.643833 0.7913078 0.14120425 0.045776352
0.091631636 0.06752819 0.051602535 6e-45 0.77213293 8.295249e-09 6e-45 0.081716865
0.7012555 0.23766714 0.08581702 0.55943304 0.3386458 0.024626942 0.00042898863 0.1108028
0.044840313 0.064695284 0.16020188 0.048628572 0.024533106 0.13003322 0.98872197 0.9410605
1.3120476 0.20408984 0.22630055 0.0007303641 0.009246093 0.0037427773 0.1201743 0.8556162
0.595525 0.3971449 2.749617e-06 0.17360766 0.028817838 0.009992492 0.34004447 0.04787533

bn1.running_var f4 [64]
00000000: a90b 8b3e c703 fd3f fc4d 193a 0400 0000
00000010: cb92 eb3b ca61 3a3f eec3 c43d 2dc4 9a3d
00000020: 1a4e c23c fdee 243d 86c8 d03e e5bb be3a
00000030: cccb 403d 1d1a 143e bf59 0a3d 7210 d73c
00000040: 2342 113e b235 eb3b daa7 a33d b7d6 e23e
00000050: c59d 923e c936 283e b769 453d 56a3 f63b
00000060: 5bc1 933c 6395 8c3c 1948 e93b 0400 0000
00000070: a120 013f 5a95 0830 0400 0000 ca37 883d
00000080: aaf9 173e a5fe a03d 7aca db3c c258 053e
00000090: 7272 0f3e 23a9 463b 0d74 3c38 b77d 373d
000000a0: c226 4c3c 4cf1 933c 120e 6c3d 2392 073c
000000b0: dc10 dd3b 9040 173d 0e40 573f ff81 663f
000000c0: 7db3 d93e 7a92 823d 5da6 7d3d 4875 8838
000000d0: b913 b73a 1091 3a3a b6b6 1b3d 108b f63e
000000e0: 235e 113e 802a e53d 3ef5 8734 b4ff 1e3e
000000f0: 299a ad3b 4202 0c3b a7e0 b13d a171 073c
0.27157333 1.9766778 0.00058481074 6e-45 0.00718913 0.72805464 0.09607683 0.07556949
0.023718882 0.04026698 0.40777987 0.0014551847 0.047069356 0.14463086 0.033776995 0.026252959
0.14185385 0.007178032 0.079909995 0.4430444 0.28635994 0.16427149 0.04819652 0.0075267954
0.018036535 0.017161077 0.0071191904 6e-45 0.5044041 4.9688753e-10 6e-45 0.06651266
0.14841333 0.078610696 0.026829947 0.1302214 0.14008501 0.0030313216 4.4930774e-05 0.044797625
0.012460412 0.018059395 0.057630606 0.008274588 0.0067463946 0.036926806 0.84082115 0.9004211
0.4251975 0.063755944 0.061926235 6.506831e-05 0.001396767 0.0007116953 0.038016044 0.4815297
0.14196067 0.11189747 2.5324147e-07 0.1552723 0.0052979183 0.002136365 0.08685427 0.008266837
