checkpoint.pth (torch_old, 21059 bytes, 10 tensors)

fc1.weight f4 [64, 37]
000000 99 9c 98 bd 22 a2 d9 3d d8 9f af 3c 15 db 00 be
       -0.07451744 0.106266275 0.021438524 -0.12583573
000010 be 10 d7 bc e0 18 74 3d 1a 5c 33 3d f3 ef 96 3d
       -0.0262531 0.059594035 0.043789007 0.073699854
000020 f6 34 1b 3c a1 5d 1d 3e e1 fd 13 be 91 7d 96 3d
       0.009473076 0.15367748 -0.14452316 0.07348169
000030 2c 03 21 be 40 6e ee bd 70 ce 9a bd 07 e1 3a 3d
       -0.15723866 -0.11642122 -0.07558906 0.04562476
000040 a4 3c 48 3d bb f6 a5 3d b3 e9 72 bd 81 da 26 be
       0.048885956 0.08103701 -0.059304904 -0.1629429
000050 9f 5b e8 3d 16 e8 fa 3d 1e 27 af bd 03 e0 4d 3e
       0.113456 0.12251298 -0.08552383 0.20104985
000060 ac 23 70 bd 57 80 2c 3b 2f 35 92 bd c6 41 c3 bb
       -0.05862777 0.0026321614 -0.0713905 -0.0059587685
000070 13 e7 04 3e a2 a7 16 be 9a 4a de 3d 62 7e 92 bd
       0.12978773 -0.14712384 0.10854073 -0.07153012
000080 13 aa e6 bc 54 6c 12 bc c1 c4 a6 3d 6c 63 49 3d
       -0.02815727 -0.00893696 0.081429966 0.04916708
000090 cf e8 04 bf 1b 8c a1 3d 0b 28 7c 3e b5 4b 2e 3e
       -0.5191774 0.07888051 0.2462465 0.17021067
0000a0 df 1b 8d bc ad e3 7a 3d ca 27 50 be 86 05 b4 bd
       -0.017225204 0.061252285 -0.20327678 -0.08790116
0000b0 d4 ee 1d 3d bb d2 48 3e 98 51 bf 3e 32 fd da 3d
       0.038557842 0.19611637 0.3736694 0.106928244
0000c0 30 39 8c 3a 82 80 3d 3d de 90 dd 3d 8a 58 89 3e
       0.0010698196 0.046265133 0.10818647 0.26825362
0000d0 c2 e4 a5 bd e3 76 4d 3e 08 f2 3a 3e cd 71 48 bd
       -0.08100273 0.20064883 0.1825639 -0.048936654
0000e0 86 1c 91 bd 50 48 be 3d ec ec 19 be 62 70 9e bd
       -0.070855185 0.09291136 -0.15031785 -0.07736279
0000f0 39 d1 94 3d b7 87 87 3e 44 b7 2d be 4e 91 2c 3e
       0.072664686 0.2647073 -0.16964442 0.16852304
000100 98 59 79 3e 07 97 ea bc 21 f1 91 3e 12 2f e0 3d
       0.24350584 -0.028636469 0.2850428 0.10946478
000110 fe b0 27 3e 83 c0 de 3d fa 4f 2f bd 53 62 b2 3e
       0.16376111 0.108765624 -0.04280088 0.3484064
000120 b1 d0 75 bc c9 f7 3f bc 35 b5 53 3e 72 18 57 bc
       -0.015003369 -0.011716791 0.20674594 -0.013128387
000130 bc 01 f7 bd 43 f7 34 be eb 62 9f be fa 71 0a be
       -0.12060878 -0.17672448 -0.31130156 -0.13520041
000140 7f ad 2d be 5e 63 09 3e 88 d2 05 bd 88 21 83 be
       -0.16960715 0.13416812 -0.03267148 -0.2561152
000150 d7 4c 4a bd 50 6d 0e be 07 06 14 be 30 95 95 bc
       -0.049389686 -0.13908887 -0.14455424 -0.018259615
000160 8f ec db bd fb e3 9f bc 43 b6 6d be f9 a5 a8 3d
       -0.10738479 -0.01951789 -0.23214059 0.08234782
000170 4f d5 f6 bd a2 f6 49 be 09 18 87 be 30 f1 01 be
       -0.12052404 -0.19722989 -0.26385525 -0.12689662
000180 6e 7f f2 3d 19 cc f2 bd e1 99 a5 be fc be 28 be
       0.118407115 -0.11855335 -0.32343963 -0.16479105
000190 eb 91 1f bc f8 21 92 3d 16 10 c8 bd 60 60 76 be
       -0.009739379 0.07135385 -0.09768693 -0.24060202
0001a0 76 bd 1f be 92 71 77 bd 80 90 28 be 04 d4 94 be
       -0.15599617 -0.060411043 -0.16461372 -0.29068005
0001b0 34 52 5d 3d 13 29 2e 3d 07 fa 11 bd 83 6b 0c 3e
       0.054033473 0.04251964 -0.035638835 0.13712887
0001c0 d1 25 8c 3d 00 f6 ba 3c 41 8e 3f 3e da dd f4 3c
       0.068431504 0.02282238 0.1870661 0.029890943
0001d0 e5 fd a9 be 11 c3 e9 3d 20 77 8f 3e f4 c6 0f 3d
       -0.3320152 0.11414159 0.28020573 0.035101846
0001e0 78 c7 0c 3d b0 a1 39 3e 99 3d 81 bd 82 da dc 3b
       0.034369916 0.18128085 -0.06310577 0.0067399153
0001f0 a2 43 3f be 6d 4b 3f be 05 0b 5c be 3b 18 18 bd
       -0.18678144 -0.18681116 -0.21488579 -0.037132483
000200 54 31 36 3c ab 62 4f bd 60 6a 84 be 3d 3c e3 3d
       0.011120159 -0.050631206 -0.25862408 0.11095474
000210 73 af 99 bd 08 38 cd 3d 59 a5 e5 3b 58 ae ec be
       -0.075041674 0.10020453 0.0070082364 -0.46226764
000220 09 6e 99 bc a4 1d 3f 3d 4c 2f 81 3e 04 9b d9 3b
       -0.018729227 0.046659127 0.25231397 0.0066407938
000230 30 af 98 3d c5 ed 85 3c 02 a7 0e 3e 05 16 b9 3d
       0.07455289 0.016348729 0.13930896 0.09037403
000240 7d 97 23 be 14 80 2d be e7 5d b1 3c cb bf 38 3c
       -0.15975757 -0.16943389 0.021651221 0.011276196
000250 9e 46 b0 be b2 3c 0e be b2 e5 60 be eb bf ff 3e
       -0.34428877 -0.13890341 -0.21962622 0.4995111
000260 49 a6 dd 3a 44 55 2d 3e 92 bd 89 bb c2 5f d3 3b
       0.0016910519 0.16927058 -0.0042035067 0.006450624
000270 dc 59 a4 bd 42 75 f1 bc bd 13 65 be d2 3e ec 3d
       -0.08024952 -0.029474858 -0.22370811 0.115354195
000280 d6 f9 37 3d 8f dd 04 be fd ee 99 3d 43 06 52 be
       0.044915996 -0.12975143 0.075162865 -0.20510201
000290 09 77 b1 3c 0a 6e d0 3b f4 03 a7 bc 92 06 45 be
       0.021663206 0.006360774 -0.020387627 -0.19240788
0002a0 b3 1c 6a be 69 e3 be 3c ae 0c 23 3e a8 a7 bb 3c
       -0.2286251 0.023301797 0.15922806 0.022907093
0002b0 33 6d ba 3c ea 45 e4 bd a3 90 74 bd 45 26 a9 3d
       0.022757148 -0.111461475 -0.05970825 0.082592525
0002c0 88 12 e9 3d e3 2b 18 3e c2 84 b1 bd 9a 4c 03 3c
       0.11380488 0.14860491 -0.086679 0.008013869
0002d0 b1 dc 77 bb f5 23 01 3e f5 2e 83 3e c7 bd 7f bd
       -0.0037820751 0.12611373 0.25621763 -0.062436845
0002e0 84 9f aa 3a c4 80 92 bc 2c 05 a8 bc 2d 23 6a bc
       0.001301751 -0.017883666 -0.020510279 -0.014290613
0002f0 49 ab 6c 3c 73 84 14 3d 30 70 bf 3c cd 10 65 3d
       0.014445134 0.036259126 0.023368925 0.055924226
000300 77 17 27 3d 88 1f bf 3d 5c b0 69 3d 53 5f 1f bd
       0.040793862 0.09332186 0.057052955 -0.038909268
000310 d3 33 21 bd 1d 79 1a bd 1b ba 8c bc 64 fc 9d 3c
       -0.039356064 -0.03771316 -0.017178586 0.019285388
000320 a6 f9 5d bc 70 dd 3e bc d1 53 85 3b 8e 89 46 3d
       -0.01354829 -0.0116494745 0.0040688296 0.048471026
000330 27 95 ce 3d 74 40 bb 3d e7 72 cd 3d 80 06 9c 3d
       0.10087042 0.09143153 0.100316815 0.07618427
000340 bc 4a da 3d 2d 39 13 3d 90 4e 99 3e 37 d6 78 be
       0.10658786 0.0359432 0.2994275 -0.24300466
000350 34 29 3f be f2 60 79 be fc b3 a2 bf 8e 29 02 bd
       -0.18668061 -0.24353388 -1.2711177 -0.03177791
000360 f6 f4 7b bc c6 dc 78 bc c0 08 6b 3d aa 93 cd 3d
       -0.015378227 -0.015189355 0.05738139 0.1003793
000370 e5 0b b2 3b 60 85 6d 3a 3e 2b 83 bd 37 ba 73 bc
       0.005433547 0.0009060707 -0.06404732 -0.01487594
000380 86 7f 60 bd 57 d4 a2 3d 26 b6 54 3b 91 70 88 be
       -0.054809116 0.07950657 0.0032457202 -0.2664838
000390 22 61 1c bd 70 44 0a bd e5 b2 cb 3d 48 bf 61 3e
       -0.03817857 -0.033756673 0.09946231 0.22045624
0003a0 9d ca d9 3c 7b c5 a9 3c 50 bc 0c 3e 3e 1d 38 bd
       0.026585871 0.020724049 0.1374371 -0.044949763
0003b0 d1 e9 4b bd 68 c0 8f 3c 16 1e 14 be 13 c4 9b bd
       -0.04978353 0.017547801 -0.14464602 -0.076057576
0003c0 b9 f3 20 3d 34 67 95 3d b6 bb 44 be 6c 26 03 be
       0.039294932 0.07295075 -0.19212231 -0.12807626
0003d0 b0 f5 8f 3e 3a 2c bb be 92 d8 23 bd ec 49 24 be
       0.28117132 -0.3655718 -0.04000146 -0.16043824
0003e0 7f c7 ab 3d 2e 5f 0e bd f0 cb 2c bf b1 5c 11 3e
       0.0838766 -0.03475874 -0.67498684 0.14195515
0003f0 dd 06 04 be 45 4e cc 3b f4 4a 23 bd 4b aa 33 be
       -0.12893243 0.0062349164 -0.039866403 -0.1754543

fc1.bias f4 [64]
000000 6c 7e 97 3d 43 dc e0 3e 35 45 3e be 1b 34 f6 bd
       0.0739716 0.43918046 -0.18581088 -0.12021657
000010 72 c4 26 3e a1 f1 b2 bd 28 d7 4c be a8 64 13 3d
       0.16285875 -0.08737493 -0.2000395 0.035984665
000020 ef c7 3d bd de fa a7 bd 1f 43 8c 3e 61 4f a7 bd
       -0.04633325 -0.08202146 0.2739496 -0.08169437
000030 da 52 03 3d e0 f4 6a bd 28 f8 77 bd 41 4e 81 3c
       0.032061435 -0.057362437 -0.060539395 0.015784385
000040 42 a6 dc bc 3a c3 01 3d 03 30 b7 3c 94 bd a0 be
       -0.026934747 0.031680323 0.022361761 -0.31394637
000050 9f 6a ae bd 46 fb 24 3e 71 65 d1 3c 90 fe fb bd
       -0.0851643 0.16111478 0.025561066 -0.12304413
000060 1a 17 25 be c9 de 2e 3e 08 69 b2 bd 79 95 36 be
       -0.16122094 0.17077173 -0.08711439 -0.17830457
000070 7e e8 38 3e fa 17 2a bd 62 9d 0d be e2 50 1f be
       0.18057439 -0.041526772 -0.13829568 -0.15558198
000080 57 d4 11 3e ab 80 ca 3d 3f 63 c2 3d 5c bd 12 3e
       0.14241157 0.09887823 0.09491586 0.14330047
000090 c7 ba 0a bd 1c de 29 be 83 d1 46 be be fe 41 be
       -0.03386953 -0.16588634 -0.1941586 -0.18944833
0000a0 97 97 87 be c8 1f 11 be 37 96 9f bd cb 45 4d 3e
       -0.2648284 -0.1417228 -0.07792323 0.20046155
0000b0 a5 06 73 bd 2f db be 3b 22 f5 6c bc b9 90 db bc
       -0.05933251 0.0058244686 -0.014462741 -0.026802408
0000c0 16 07 07 be 4d 9c 4b 3d 62 32 27 be 03 63 ad 3d
       -0.13186297 0.049709607 -0.16327813 0.084661506
0000d0 49 bb 42 3e 75 33 47 be 0c 7f cd bd 3e 63 ca 3d
       0.19016756 -0.19453223 -0.10033998 0.0988221
0000e0 d7 0c 0c 3f e4 f2 42 be ca ec d9 bd 3f e7 7a be
       0.5470709 -0.19037968 -0.10640867 -0.24502276
0000f0 b6 3f 58 3c 72 94 a8 bd f4 56 c4 bd f9 07 06 be
       0.013198784 -0.08231439 -0.095868975 -0.13088979

fc2.weight f4 [32, 64]
000000 c1 d2 f1 bb db cd 24 bd 1a 1e 4f 3e 7e a3 f4 be
       -0.00737986 -0.04023538 0.20226327 -0.47780985
000010 32 a3 81 bd de 95 65 3c 97 15 4a 3e 8d 93 15 bd
       -0.06329955 0.014012782 0.19734798 -0.03651767
000020 2c 7f 1c 3e ed 77 21 3e 6d 24 5f 3c 1a 26 cd 3d
       0.15282887 0.15768404 0.013619524 0.10017033
000030 88 2b 86 bc e3 f6 21 3e ca ba 8f 3d 19 2c 89 3d
       -0.01637818 0.15816836 0.07018049 0.06697864
000040 3c cb 72 be 5c f8 54 3d be ab bb 3d 6b 20 ed 3c
       -0.2371034 0.051994666 0.091636166 0.028946122
000050 e0 73 a5 bd 7a d3 54 be 9d 5e f3 3d 19 d4 da 3c
       -0.08078742 -0.20783797 0.118832804 0.026712464
000060 66 cb da bd b3 28 18 3e 0a 61 e8 3d 79 65 49 bc
       -0.106833264 0.14859276 0.11346634 -0.012292259
000070 21 53 92 3e 10 af 10 3d 75 af 5d 3e 38 f7 87 bd
       0.28579047 0.035323203 0.21648963 -0.0663895
000080 5a e5 46 3e c7 fc 1b bd 3a cd de 3d 6c 48 53 3d
       0.19423428 -0.038082864 0.108789876 0.05158274
000090 41 cf 68 be 68 bc f7 3d fc 30 76 3e e0 8b 14 bd
       -0.22735311 0.120964825 0.24042124 -0.036266208
0000a0 0b d4 bf bd 48 d8 a6 3c 69 0c 1c 3e bb c7 ab bb
       -0.09366616 0.020366803 0.15239109 -0.0052423156
0000b0 83 16 0b 3d 53 98 61 3d e4 3a 49 3d 82 c2 90 3d
       0.033957016 0.05507691 0.049128428 0.070683494
0000c0 0d 17 9a be 86 12 b1 3d 17 f6 aa bd 07 06 e9 bc
       -0.3009571 0.08646111 -0.08347719 -0.028445257
0000d0 eb 07 5b be 8f 46 43 be c1 4c e6 bc 6c 23 54 be
       -0.21389739 -0.19069885 -0.028112771 -0.20716637
0000e0 0c 0c ea 3d 19 37 a3 be 51 f5 1f bd 4e 68 b9 3d
       0.11428079 -0.31877974 -0.03905231 0.09053098
0000f0 e6 dd 07 3e ce 28 ec 3d 5e e9 87 ba 11 61 b9 3d
       0.13268241 0.115312204 -0.0010369231 0.09051717
000100 31 ff c1 bd 0b a9 e8 3d 8d 56 f2 3d 66 a4 9e bd
       -0.09472502 0.113603674 0.118329145 -0.077462
000110 f7 17 1d bd 72 36 63 be 9d b5 c2 3c ad 9d 9c 3d
       -0.038352933 -0.22188738 0.02376824 0.07647262
000120 ea 4f 07 3e 11 b3 58 3e 9e ec 5a bd a0 bd 0a 3d
       0.13214079 0.21162058 -0.053448312 0.033872247
000130 82 cd 82 be 6d b0 75 3e b5 b7 d3 bd ae 01 8c 3d
       -0.25547415 0.23993082 -0.10337774 0.06836258
000140 7f 16 7f 3e ad d7 80 3c a5 e8 83 be e1 40 5c be
       0.24910925 0.015727842 -0.2576343 -0.21509124
000150 16 69 22 3d bd be 37 bd af b0 60 3e bb ae 50 be
       0.039651 -0.044859637 0.219424 -0.20379154
000160 6c a7 77 be ec 76 a9 3d c7 98 12 3e cb ad 4b be
       -0.2418496 0.08274636 0.14316092 -0.19890516
000170 a2 cd 15 be 86 bc 1c be a2 4e 7a bd e5 36 04 3d
       -0.14629224 -0.15306291 -0.061110146 0.032278914
000180 f8 1c cb 3d f8 b3 f3 3c dd 2d 90 3d 9f c0 ef bd
       0.09917635 0.029748902 0.07039998 -0.117066614
000190 30 99 f6 3c 72 f2 81 3d 31 3f 29 3e f9 80 95 3d
       0.030102342 0.06345071 0.16528012 0.0729999
0001a0 9c 4c 5e 3d 5d 65 28 bd 2a 1d bf be b3 82 9a bc
       0.05427228 -0.041112293 -0.37326938 -0.01886115
0001b0 50 48 ce bd 17 16 28 bd 64 be 0a be ba 31 fa 3c
       -0.10072386 -0.04103669 -0.13549191 0.03054129
0001c0 b7 df 1a be d2 38 66 3d c6 3d 88 3d fd 8b b0 3e
       -0.15124403 0.05620653 0.06652407 0.34481803
0001d0 ac cf 24 bc ed fd 88 3e 17 49 67 3e bd 49 41 3e
       -0.010059278 0.2675623 0.22586475 0.18875785
0001e0 07 a4 16 be f8 f4 3e bd f5 4d 9f bb d4 2f 85 3d
       -0.14711009 -0.04662034 -0.004861588 0.06503263
0001f0 76 9e be be 08 b5 bb bc d8 36 1f bd 9d fc 97 bd
       -0.3723027 -0.02291347 -0.038870662 -0.07421229
000200 8b 19 bd bd a7 12 a8 bd 48 3b ef 3d bc 75 10 3c
       -0.092333876 -0.08206683 0.11681229 0.008817133
000210 2f d8 1d 3d 93 df 2f 3d 66 d1 ae 3b f9 d3 7c bd
       0.038536247 0.042937826 0.005335021 -0.06172559
000220 48 d7 d1 3e 7e 93 e5 bd e5 4c f8 bb 29 7e c5 3e
       0.4098456 -0.112097725 -0.007577526 0.38572815
000230 01 6c 92 3e b0 76 81 3e f5 d5 05 bc 3f 68 4c 3d
       0.28598025 0.25285864 -0.008168687 0.049904104
000240 2a a5 27 bd 0c 17 be 3c 99 2b 3b bd bf 1b 76 3d
       -0.040928997 0.023204349 -0.045695875 0.060085054
000250 34 3a c3 bd ba 2a 8c 3d 7c 5f cd bd bc 55 2f 3e
       -0.09532586 0.06844087 -0.10027978 0.17122549
000260 3b 9d 1d bd 54 c5 8a 3c c3 df 80 bd 89 9c 35 3e
       -0.038480025 0.016939797 -0.06292679 0.17735495
000270 20 83 16 3d 5b e6 cf 3e 40 87 83 3c cc 64 2a 3d
       0.036746144 0.40605435 0.016055703 0.041600034
000280 22 5b 24 be 63 6d 68 bd 94 1f f9 3b 81 e8 f3 3c
       -0.1605039 -0.056744944 0.0076026414 0.029773952
000290 58 76 a3 3c 84 1d e2 3d 0b 0c b0 3c 1e 1a 8e 3d
       0.019953892 0.11040786 0.021490118 0.06938575
0002a0 1e 02 0f 3e 6f 7e 3c 3c 61 c4 ad bd 2e b7 03 bd
       0.13965651 0.0115047535 -0.08484722 -0.032157116
0002b0 6f f9 e4 bc 05 17 82 bc 03 e4 22 3d 9f 7f 6b bd
       -0.02795097 -0.015880117 0.03976823 -0.057494756
0002c0 96 de 0b 3d 39 d1 c4 bd 1d 66 78 bd 31 48 91 be
       0.03414782 -0.096102186 -0.060644258 -0.2837539
0002d0 15 ac 1e 3d ad 4b f6 3d 78 97 17 be 97 8b 18 be
       0.03873833 0.12026153 -0.14803874 -0.14897
0002e0 2f 72 be 3c e7 b4 4c bd 77 18 d5 3d cd 21 19 bc
       0.023247806 -0.04997721 0.10405057 -0.009346438
0002f0 f8 d4 1e bd 91 70 ba 3d cd d9 cd bb bd 02 b3 3d
       -0.03877732 0.091035016 -0.0062820674 0.08740757
000300 6e 58 a1 3d bd 2a dd bd a7 92 d6 3d cf e7 10 bd
       0.07878195 -0.10799167 0.104771905 -0.03537732
000310 04 19 23 bc 60 28 39 3e fa c9 bd bd 7b ba 2d 3c
       -0.009954695 0.18081808 -0.092670396 0.010603542
000320 5f 3f 14 3e 84 0a 14 bc ba e8 a4 bd 81 cd 82 3e
       0.14477299 -0.00903571 -0.080522016 0.25547412
000330 df 41 2e 3e 9b 92 76 3e 7b 8e 84 bd 71 05 df bd
       0.17017315 0.24079363 -0.064724885 -0.1088971
000340 26 96 d4 bc 94 b0 df bc d2 e0 5f 3d 75 37 49 bd
       -0.025950503 -0.027305879 0.054657765 -0.049125154
000350 7c b5 c9 3d 9a 5d 37 bd 01 3b 95 be 6c 00 c0 3d
       0.098490685 -0.044767 -0.2914658 0.093750805
000360 83 da 9a bc 8e c4 3b 3d b6 5b 4f 3e 8b ae 53 3e
       -0.018903023 0.045841746 0.20249829 0.20672052
000370 33 ce 08 3e 57 00 74 3e b6 2d e7 bc cd 87 30 3d
       0.13359909 0.23828255 -0.028220039 0.04309826
000380 18 57 24 be 67 74 17 bc 35 ae 9d bd 69 14 b1 3d
       -0.16048849 -0.009244061 -0.07699243 0.08646471
000390 f7 c1 00 bd 2a 36 23 3e 02 fc 2c 3e 26 fe 9a bd
       -0.03143498 0.1593863 0.16893008 -0.07568006
0003a0 68 1a 6e bd 68 a1 8b 3d d4 05 69 be ee bb fb bc
       -0.05813065 0.06817895 -0.2275613 -0.03072926
0003b0 6d fe de 3c b2 e4 da bd 4f c3 95 3d 9d 65 f6 bc
       0.027220929 -0.106881514 0.07312643 -0.03007775
0003c0 6a 40 6f 3d 3b c0 d5 bd ef 10 24 bd ee f6 37 3d
       0.05841104 -0.10437056 -0.04005521 0.044913225
0003d0 4e 6d 4e 3d 38 3c 3c be 4f d2 85 bd a9 97 03 3b
       0.05039721 -0.18382347 -0.06534254 0.002007941
0003e0 bc 4a 6f 3c 4b 18 52 bd f8 09 ed bc c7 94 9c 3d
       0.01460522 -0.0512927 -0.028935418 0.076455645
0003f0 6b 7a 96 bd fb db 79 bd 18 5a a9 bd 48 57 2f bb
       -0.07347568 -0.061000805 -0.08269137 -0.0026754905

fc2.bias f4 [32]
000000 fd 81 13 bd d4 b7 ea 3d cd 81 97 3c e6 26 32 be
       -0.03601264 0.11460844 0.018494511 -0.17397651
000010 c0 44 80 3e 0d 4b 00 bd ee e2 e4 3c 3d d3 09 be
       0.25052452 -0.031321574 0.02794024 -0.13459487
000020 f5 b4 75 bd 34 39 5d be 08 2d b5 3e c1 4a 3b 3d
       -0.059987027 -0.21603853 0.3538592 0.045725588
000030 61 ff ee 3d 73 60 08 3e b0 2d 57 bd 4f fc d0 3d
       0.116698034 0.13318042 -0.052533805 0.10204374
000040 af 50 4c be b1 86 34 3f b9 52 23 3e 43 50 a9 bd
       -0.19952653 0.7051802 0.15949525 -0.08267262
000050 a7 14 bc bd 1e 07 1b 3e ce a7 df 3e 0e 41 3b 3d
       -0.091836266 0.15139434 0.43682712 0.045716338
000060 3b 40 f7 3e 8b ae 82 be 57 a0 7b bd 53 9a a0 bd
       0.4829119 -0.2552379 -0.06143221 -0.07841935
000070 1e 55 08 3f d1 60 ad 3e 2e ef a7 3e ce d0 41 3f
       0.5325488 0.33862928 0.32799667 0.75709236

fc3.weight f4 [4, 32]
000000 e4 10 47 3e eb 54 7a 3e 3d 46 ac 3e c2 58 96 be
       0.19440037 0.24446456 0.33647338 -0.29364592
000010 80 66 72 3d 0a 7c 0d 3e e7 45 a7 3d 6f d7 37 be
       0.059179783 0.13816848 0.0816763 -0.17953275
000020 e9 30 56 be 98 d2 b8 bd 41 00 61 3e b9 8d 74 3e
       -0.20917095 -0.090245426 0.21972753 0.23882188
000030 d0 27 1f 3e 36 c7 37 3e c1 e2 42 3d 33 46 0c 3e
       0.15542531 0.17947087 0.04757953 0.13698654
000040 62 7a ff bd 87 3d 94 3e 4a 81 06 3e 3d 77 4d be
       -0.124745145 0.28953192 0.13135257 -0.20065017
000050 1a 91 9a be a2 8a 9a 3d 28 02 2e 3e fe fa 08 3e
       -0.3018883 0.07545973 0.1699301 0.13376996
000060 70 3c 39 3e 0c 38 ae 3d b1 2b ff bd 86 e2 80 be
       0.18089461 0.08506784 -0.12459505 -0.25172824
000070 f1 1b 81 3e d2 a4 e8 3d 9a bd c4 3d fa e3 a0 3e
       0.2521663 0.11359562 0.09606476 0.31423932
000080 27 89 a9 bc bb 47 8e 3e 83 e1 60 3e 4a 3c 09 be
       -0.020695282 0.277891 0.21961026 -0.13401905
000090 97 40 f8 3d 0b a2 5d 3e ec 02 01 3e 48 97 a8 bb
       0.121216945 0.21643846 0.12598771 -0.0051449873
0000a0 25 67 45 be 6c f0 93 bd 3d 42 74 3e 88 91 71 3e
       -0.19277628 -0.07223591 0.23853393 0.23590672
0000b0 cf 3c 17 3e db f2 b7 3d 13 09 a9 3d 0b f2 e5 3c
       0.1476929 0.08981868 0.08253684 0.028069517
0000c0 6d e0 4e be d4 14 af 3e 37 0f 40 3e 10 b1 b0 bd
       -0.20202799 0.34195578 0.18755804 -0.08627522
0000d0 27 c4 aa be 07 c8 03 3e e9 a0 06 3e 6b bc 5a 3e
       -0.33352777 0.12869273 0.1314732 0.21360938
0000e0 9e f1 30 3e c8 4f 94 bf e9 77 07 be 75 c0 25 be
       0.1727967 -1.1586847 -0.13229336 -0.16186698
0000f0 6f 03 8a 3e ef 21 58 3d 8a 20 2d 3e 5b 99 83 3e
       0.26955745 0.052766737 0.16906944 0.25702938
000100 07 3d 6b bc 7f 37 ea 3d 12 94 b3 3d 63 42 2c bc
       -0.014357812 0.11436366 0.087684765 -0.010513875
000110 30 23 4e 3e 09 f3 e4 3d a0 d9 f0 bc ea 3f 09 be
       0.2013061 0.11179168 -0.029400647 -0.13403288
000120 bc df 40 3d 12 c2 d2 3d f3 d0 00 3e 6f 9a 21 3e
       0.04708837 0.10290922 0.12579708 0.15781568
000130 45 a1 af bd dc d8 21 3e 4a a0 9b 3e f6 8a b2 3d
       -0.085756816 0.15805382 0.30395728 0.08717911
000140 5b 37 e1 be 40 1a 88 3e d9 c5 85 3e 81 52 80 3d
       -0.43987545 0.26582527 0.26127508 0.06265736
000150 92 9b 0b be fc 65 ae 3c ee ce 0f 3d bc 23 b7 3b
       -0.13633564 0.021288864 0.035109453 0.0055889767
000160 6a d1 34 3e 31 aa d1 3c 17 6b 65 be f3 75 10 be
       0.1765801 0.025593849 -0.22404133 -0.14107494
000170 fb 14 88 3e fb 62 7a 3e f5 af fe 3c a1 0a a6 3e
       0.26578507 0.2445182 0.031089762 0.32429984
000180 3f 9b 57 3d 9a fa 83 3e b4 ca 1d bc e8 6d 5d 3d
       0.05263829 0.2577713 -0.009630848 0.054059893
000190 68 a0 49 3d 3b 7c a0 be e9 43 55 3e f2 20 87 bb
       0.04922524 -0.3134478 0.20826687 -0.0041238004
0001a0 12 66 75 be 69 a0 6f be fe 39 82 3e a4 57 35 3e
       -0.23964718 -0.23401035 0.2543487 0.17709213
0001b0 29 46 49 3e 66 1f ca 3d b0 71 77 3d b8 f7 0b 3e
       0.1965567 0.0986927 0.060411155 0.13668716
0001c0 2a fd 29 be 18 81 61 3e 21 cb 90 3d 3e d4 5d 3e
       -0.1660048 0.22021902 0.07069994 0.21662995
0001d0 7a e2 b3 be 71 c0 37 3e 79 4a 69 3e 0b e3 64 3e
       -0.35133725 0.17944504 0.22782315 0.22352235
0001e0 e3 6b 82 3e eb 71 3a 3d 21 e4 4b be 07 86 57 be
       0.25472936 0.045518797 -0.19911243 -0.21047221
0001f0 87 0b 48 3e 86 63 45 3e 53 6d 0b 3e 51 29 97 3e
       0.19535647 0.19276246 0.13615923 0.2952371

fc3.bias f4 [4]
000000 4a 63 e0 3e d1 38 cf 3e 0c 49 ef 3e 02 56 df 3e
       0.43825752 0.40473035 0.46735418 0.43620306

bn1.weight f4 [64]
000000 54 b7 ad 3e 23 1a ee 3d ce 3d 01 3f db e5 99 3e
       0.3392893 0.11626079 0.5048493 0.30058178
000010 60 b5 35 3f 5d 91 8b 3f 1f c5 63 3e c5 a3 ef 3e
       0.7097988 1.0903736 0.22243164 0.46804634
000020 14 2f 59 3f ee 11 ed 3d c5 87 5a 3e 7e 77 03 3f
       0.8483746 0.115756854 0.21340854 0.51354206
000030 20 41 22 3f 8a 17 e4 3e bd 37 92 3e a0 fa 73 3e
       0.6338062 0.4454921 0.2855815 0.23826075
000040 54 1d f1 3d 24 a5 e8 3e 54 35 60 3c 7d 3f 3e 3e
       0.11773172 0.45438492 0.013684589 0.18578906
000050 90 1a 9a 3e 23 04 7b 3e e1 d0 f3 3e a1 6b bc 3e
       0.3009839 0.24513297 0.476203 0.36800864
000060 a9 1f 30 3f a8 fb 6c 3e fe af 22 3f 6f f6 f5 3e
       0.6879831 0.23142874 0.6354979 0.48039576
000070 65 aa 9b 3e 95 23 f6 3e 02 7e 41 3e d6 bc b0 3e
       0.30403438 0.48074022 0.18895724 0.3451907
000080 fa c3 06 3f 08 21 c7 3e 6c 22 c3 3e 54 83 67 3e
       0.52642787 0.38892388 0.381122 0.22608691
000090 ac 5c e3 3e 34 92 dc 3d 6f f0 8a 3e 80 0f a4 3c
       0.4440664 0.107700735 0.2713656 0.020026922
0000a0 b0 66 2e 3c 47 3a 07 3f 27 02 18 3f fa 52 10 3f
       0.0106446 0.528233 0.59378284 0.5637661
0000b0 13 e8 38 3f 24 79 6f 3e 40 17 a1 3e 36 bf c9 3e
       0.7222912 0.23386055 0.3146305 0.39403695
0000c0 80 25 89 3e e3 16 2a 3f 46 34 ba 3e 46 48 4a 3e
       0.26786423 0.6644117 0.36368006 0.19754133
0000d0 d8 47 bf 3e 36 8a 13 3c aa 6e 33 3e 63 77 f2 3d
       0.373595 0.00900512 0.17522684 0.118391775
0000e0 4d d2 22 3f 4f 8f ee 3c b3 d1 17 3f b5 6d 09 3f
       0.63602144 0.02912107 0.5930435 0.53683025
0000f0 e3 47 c1 3d 02 62 3e 3f 8e cb 22 3f 51 e3 fb 3e
       0.094375394 0.743683 0.6359185 0.49196866

bn1.bias f4 [64]
000000 f4 b0 c6 3e ab e2 e7 3e 14 cd 83 be 34 2d de 3d
       0.3880688 0.4529012 -0.257424 0.108484656
000010 87 ab 5b 3d f0 16 74 3d b6 38 a6 3c ac a1 e2 bd
       0.053630378 0.059592187 0.020290714 -0.11065993
000020 4e 41 d5 3d 4e 25 80 be 89 f8 e7 be 59 4c f6 3d
       0.104128465 -0.2502846 -0.45306805 0.12026281
000030 59 5f 05 3e 48 a2 09 3e c2 fe cf 3d 5f 34 02 be
       0.13024653 0.13440812 0.10156013 -0.1271529
000040 4d fd 7d be 81 fa 30 bd 33 20 fc be 18 38 28 be
       -0.24803658 -0.04320765 -0.49243316 -0.16427648
000050 47 0a 12 3e 48 75 0e be fb cb 66 be 7a da 31 3d
       0.14261733 -0.13911927 -0.2253875 0.043421246
000060 74 2b e6 bd 6c e0 c8 bd e8 b8 2f 3e d0 e5 2b 3e
       -0.11238757 -0.0980843 0.1716038 0.16786885
000070 07 41 5d 3e 0a 92 8c 3e 8d 18 7e be 41 65 23 3d
       0.21606837 0.2745517 -0.24814053 0.039891485
000080 d5 23 3a 3d 4a 3c 43 be b0 8b 4c bd 8f f3 5b bd
       0.04544433 -0.19065967 -0.049937904 -0.053699072
000090 51 e8 08 3c 66 23 53 3e f0 91 8a bd 85 02 f2 3e
       0.00835617 0.20618972 -0.067661166 0.47267547
0000a0 a2 4f b5 3e dd 02 93 be d1 d6 c0 be 07 f0 c2 3e
       0.35412318 -0.28713122 -0.37663892 0.3807375
0000b0 26 90 b0 3e 28 4d 4f 3e 36 17 b3 3e 24 1f d2 be
       0.34484977 0.20244277 0.34978646 -0.41039383
0000c0 f4 1a 79 3e 06 f4 93 3b 5f c0 9f 3d 0a 9d 8b be
       0.24326688 0.004515174 0.07800364 -0.2726825
0000d0 4c 2b 5a be 2d 12 04 3f de 44 c7 bd 24 6b ad be
       -0.21305579 0.51590234 -0.09729932 -0.33870804
0000e0 3b 11 bf 3d 1a 06 90 3e 69 09 12 3e a9 88 d9 be
       0.09329458 0.28129655 0.14261402 -0.42487076
0000f0 ea 41 97 3e 6f 71 94 be ac f2 67 3b 8c 8c fb 3d
       0.29542476 -0.28992793 0.0035392446 0.122826666

bn1.running_mean f4 [64]
000000 00 18 fd 3e 99 67 94 3f 61 05 1c 31 42 45 35 3d
       0.49432373 1.1594115 2.2704045e-09 0.044255503
000010 c9 09 4f 3e 54 05 82 3d 50 89 ba 3c ee 53 50 3e
       0.20218576 0.063486725 0.022770554 0.20344517
000020 d3 4b b6 3d dd ec 27 3f a0 86 f4 3f 96 ab 65 3d
       0.08901181 0.655958 1.9103584 0.05607184
000030 39 dd 02 3d 95 05 e6 3d b7 6b 98 3c 46 1c f9 3d
       0.031949256 0.112315334 0.01860605 0.12163596
000040 e4 bf 88 3e df f6 52 3f eb 51 4f 3d 31 c3 a3 3a
       0.267089 0.82407945 0.050615232 0.0012494085
000050 bc 46 95 3f a1 35 ae 3d fb 27 b7 3c f3 10 ce 3c
       1.1662211 0.08506323 0.022357931 0.025154566
000060 e3 6d bf 3c fc 9f 8e 3e 2b 6e f5 3c 62 fa 54 3d
       0.023367828 0.27856433 0.029959759 0.051996596
000070 eb 34 c8 3e 98 3e 0f 3d 04 00 00 00 74 cb 5c 3d
       0.39102873 0.034971803 6e-45 0.053904966
000080 ba 02 9d 3e ac 4a d5 3e f6 01 d0 3e f1 49 eb 3d
       0.30666143 0.41658533 0.40626496 0.114887126
000090 d9 ad 23 3f 04 00 00 00 04 00 00 00 86 1f 8f 3e
       0.63937145 6e-45 6e-45 0.27953738
0000a0 66 5c b5 3c c4 56 ca 36 f8 2c cf 3b b5 6f 64 3f
       0.022138786 6.03017e-06 0.0063224994 0.8923295
0000b0 af 98 65 3c ad 47 5c 3e cb b4 62 3f 6b bb 43 3f
       0.014013453 0.21511717 0.8855712 0.7645785
0000c0 a0 80 73 3e ee 76 3f 3d a4 27 2d 3e 44 53 65 3c
       0.23779535 0.04674428 0.16909653 0.013996903
0000d0 c8 89 80 3e 04 00 00 00 28 b5 a9 3d a1 f3 ea 3e
       0.2510512 6e-45 0.08286506 0.45889
0000e0 a9 f3 92 3f 87 6b 18 3d 9c 8e 4a 3f 04 00 00 00
       1.1480609 0.03721192 0.79123855 6e-45
0000f0 72 f0 76 3e 04 00 00 00 04 00 00 00 04 00 00 00
       0.2411516 6e-45 6e-45 6e-45

bn1.running_var f4 [64]
000000 c5 7d b2 3f f9 ca 4e 3e 67 c2 0f 2f b9 f4 50 3c
       1.3944632 0.20194615 1.307484e-10 0.012753659
000010 10 5d b8 3d dd 03 4e 3c 63 37 fa 3b 36 75 79 3d
       0.09002125 0.012574163 0.007635997 0.060902797
000020 65 83 93 3c 08 d7 15 3e 53 1b f4 3f c1 20 40 3c
       0.01800699 0.14632809 1.9070839 0.011726559
000030 3c 22 de 3b 04 b3 dd 3c 26 0f b5 3b ac dd c9 3d
       0.0067789834 0.0270629 0.0055254875 0.09856734
000040 d6 91 b6 3d c1 a7 bd 3e 95 4b 86 3c 7b 93 86 39
       0.08914535 0.3704205 0.016393462 0.00025668353
000050 b7 08 4d 3f f6 37 2b 3d 9f 07 c4 3b 21 6a 3a 3b
       0.8009142 0.041801415 0.005982354 0.0028444605
000060 c6 da 1a 3b d0 a6 d5 3d 50 18 b5 3b 9b ad 21 3c
       0.0023628934 0.104322076 0.00552658 0.009868051
000070 17 1f f5 3d e7 3a af 3b 04 00 00 00 e1 cc fa 3c
       0.119688205 0.005347598 6e-45 0.030615272
000080 64 33 fb 3d d3 ec 55 3f c3 33 e6 3e 6a 9e 5a 3d
       0.12265661 0.8356449 0.44961366 0.05337373
000090 25 1f 02 3e 04 00 00 00 04 00 00 00 8b fb ea 3d
       0.12707193 6e-45 6e-45 0.11473759
0000a0 d6 91 c1 3b 04 d6 15 34 be 48 c2 3a 7d a4 00 3e
       0.0059072776 1.3954565e-07 0.0014822704 0.12562747
0000b0 58 df 25 3b 0d 77 bc 3d 91 6d 24 3f 3d 3e e5 3e
       0.0025310125 0.09202395 0.64229685 0.44774047
0000c0 e1 63 a1 3d 96 d0 00 3c 3f 94 63 3d be aa 79 3b
       0.078803785 0.007862231 0.0555613 0.0038096155
0000d0 95 2d 81 3d 04 00 00 00 10 72 ec 3c e3 6d 32 3e
       0.06307522 6e-45 0.028862983 0.17424731
0000e0 ef f0 d6 3d d9 55 22 3c da 0d d7 3e 04 00 00 00
       0.10495173 0.009908163 0.42002755 6e-45
0000f0 ad 3b 73 3d 04 00 00 00 04 00 00 00 04 00 00 00
       0.059383083 6e-45 6e-45 6e-45
